prac2/output/unet_hc.pth (torch, 483157 bytes, 25 tensors)

weight f4 [16, 1, 3, 3]
000000 74 72 9d 3e f9 1e 98 3e c0 2c 0b 3d c2 16 49 be
       0.30751383 0.2971113 0.033978224 -0.19637588
000010 f5 62 18 be 9d a4 96 be c5 e4 8e 3e f1 57 96 3e
       -0.14881499 -0.29422465 0.27908912 0.2936397
000020 c6 96 00 be 85 2a cb 3d cb 63 43 3e ec 0c 8d be
       -0.12557516 0.09920219 0.19081037 -0.2754892
000030 b0 3e 56 be e8 b2 70 3e f1 94 8b be 22 f8 d4 bd
       -0.20922351 0.23505747 -0.2726207 -0.1039889
000040 3f fe 16 be 79 d3 23 3e 14 8d 83 bf 84 c0 0b bf
       -0.14745425 0.15998639 -1.0277429 -0.5459063
000050 68 98 63 bf 10 a6 60 bf 8e 6f 4d bf 74 c1 95 bf
       -0.8890443 -0.8775339 -0.80248344 -1.1699662
000060 46 f5 0f bf ee 3b 72 bf 01 87 79 bf 1f b1 1a be
       -0.5623363 -0.94622695 -0.97471625 -0.15106629
000070 08 ce e4 bd 46 ea 6b bc a0 80 1f be 9a ec 2f 3e
       -0.1117211 -0.014399117 -0.1557641 0.171801
000080 0f 56 f0 bd 60 79 90 be 00 b7 90 bd eb 07 21 3e
       -0.117351644 -0.28217602 -0.070661545 0.15725677
000090 2b 3a 6d 3d bb 2d a1 bd 06 10 df 3d de de 35 be
       0.0579168 -0.078700505 0.10891728 -0.17760798
0000a0 fb ee c2 bd 6b 63 87 be 43 70 42 be 80 44 70 3e
       -0.09518238 -0.26443037 -0.18988137 0.2346363
0000b0 33 92 51 be 15 be a0 3d 2b 1e 79 3e 54 8f 4b 3e
       -0.20465927 0.07848755 0.24327914 0.19878894
0000c0 a1 77 2c 3e b4 80 15 3e d9 c7 4b bd 10 bb 8f bf
       0.1684251 0.14599878 -0.049751136 -1.1228962
0000d0 1b d9 36 bf eb 56 87 bf 2b 0d 28 3e cd b1 b4 bd
       -0.71425027 -1.05734 0.16411273 -0.08822975
0000e0 55 c5 db 3d c0 34 33 3e f0 b3 85 3b fc 0d 51 3e
       0.107309975 0.17500591 0.004080288 0.20415491
0000f0 dd fc 99 3e e3 6a 7b bd 76 87 41 be d1 32 06 be
       0.30075732 -0.061381232 -0.1889933 -0.13105322
000100 54 be 0f 3e f3 65 37 3e c5 28 9b be 7f 4d 02 be
       0.14037448 0.17909984 -0.30304542 -0.12724875
000110 b8 a8 68 3e 74 11 7c 3e 65 b9 6f 3e 7d db 84 3e
       0.22720611 0.24616033 0.23410566 0.25948706
000120 bd 96 a7 3e 9e b3 95 3e ef fc 86 3e 2d 67 c2 be
       0.32732192 0.292386 0.26364848 -0.37969342
000130 98 44 4d 3e 43 4a 29 3e 98 63 3a 3e 41 f2 87 be
       0.20045698 0.16532235 0.18202055 -0.26552013
000140 d6 3e ba be 6d 2d 1c be 22 05 04 bc d3 3e de bc
       -0.36376065 -0.15251704 -0.008057864 -0.027129566
000150 bf f2 03 be 8b 75 0a bd ab 4e ca 3d 3c 1d 3a 3e
       -0.12885569 -0.033803504 0.09878286 0.18175215
000160 48 22 b4 be d3 58 01 be bb 5e d4 3b d1 f0 3a be
       -0.35182405 -0.1263154 0.0064810193 -0.18255927
000170 b6 24 2e 3d c5 48 26 3e 66 35 53 be de d5 32 3e
       0.04251548 0.16238697 -0.20625839 0.17464396
000180 df 01 75 3e 10 2d 8b be 1b a8 b9 be 2c 2d 87 3d
       0.23926495 -0.27182817 -0.36261067 0.06600413
000190 14 83 02 3d e1 99 4f 3c c2 a3 00 be f5 6e 43 be
       0.031863287 0.012670965 -0.12562469 -0.19085295
0001a0 d9 ec 6a 3e 0f a1 4d 3d f0 df 34 3e ca c9 4c 3e
       0.22941913 0.050202426 0.1766355 0.19998851
0001b0 1a c5 77 be 2b e9 af be bf b6 a1 be 19 18 26 3e
       -0.24196282 -0.3435758 -0.31584737 0.1622013
0001c0 41 fe 76 3e bf 46 09 be 95 d4 96 3d 65 28 ae 3e
       0.24120428 -0.13405894 0.073647656 0.34015194
0001d0 0e a9 d4 3e 5a 30 1e 3e 71 e3 40 be 7f 8a 8b 3e
       0.41535228 0.15448132 -0.18836762 0.27254102
0001e0 ac e3 ed 3d 94 35 e1 3d d7 38 58 be 96 f9 81 be
       0.116156906 0.10996547 -0.21115433 -0.2538573
0001f0 53 00 38 be c3 97 17 3e f5 84 81 3e d2 51 a9 bd
       -0.17968874 0.14803986 0.2529675 -0.08267559
000200 7f bf 12 be 17 88 f9 3c 61 16 ad bc 99 3e 56 be
       -0.14330862 0.0304604 -0.021128835 -0.20922317
000210 e9 89 ba 3d 72 2a 0b 3e eb 9b 30 bb 56 42 05 be
       0.091083355 0.1359041 -0.0026948403 -0.13013586
000220 ab d9 d4 bd cb 43 15 be 77 cb 94 be 48 31 45 be
       -0.10393079 -0.14576642 -0.2906148 -0.1925708
000230 db 8f 52 be 16 9b bf 3d 66 54 9e be 46 cf dd bd
       -0.20562689 0.09355752 -0.30923766 -0.1083055

bias f4 [16]
000000 2e 97 68 be aa d6 89 3e 9a 16 38 3d bd 81 7c 3e
       -0.2271392 0.26921588 0.04494343 0.24658866
000010 66 07 1d be 81 7e 68 3c c4 74 eb 3d 34 05 99 bc
       -0.15334854 0.014190317 0.11496881 -0.018679239
000020 65 c2 db 3c ee 14 81 3d 07 8f 15 3e 9c 9d ef bd
       0.026826093 0.0630282 0.14605342 -0.116999835
000030 66 6d c7 bd 1d 25 8c 3e 35 e1 92 bc c6 e5 70 be
       -0.09737663 0.27372065 -0.017929653 -0.23525152

weight f4 [16, 16, 3, 3]
000000 15 d7 02 3d c9 51 88 3c 02 f6 8b bd fd 99 b3 bd
       0.0319434 0.01664056 -0.06834032 -0.08769605
000010 a5 6c 19 be f4 5f 04 be aa 33 e6 bc c1 c8 1e bd
       -0.14982851 -0.12927228 -0.028100807 -0.038765673
000020 45 9c 2f bd 64 72 b2 3d ae ab bc 3d 9e ec 16 bd
       -0.04287364 0.087132245 0.09212433 -0.03684675
000030 09 1e 15 3d 8a b4 da 3c 7f 04 bf 3d 76 7f 9f 3d
       0.036405597 0.026697416 0.093270294 0.07787983
000040 ce 0a 87 bc 18 4b fb 3c 9a f5 9e be 0e ed 7f be
       -0.016484644 0.030675456 -0.31046754 -0.24992773
000050 f0 bb 84 be ed 62 af be c7 27 a1 be f9 64 b2 be
       -0.25924635 -0.34255162 -0.3147566 -0.3484266
000060 33 71 71 be 35 07 9c be c3 47 cf be ac 21 3b bc
       -0.23578338 -0.3047425 -0.40484437 -0.011421602
000070 24 6b a3 3d e3 ce a9 bc 94 61 8a 3b 59 7f 80 bb
       0.0797942 -0.020728534 0.004223058 -0.003921431
000080 fe 33 07 bc 59 25 f5 bc c7 bb c9 bc 7e 97 29 3d
       -0.008252142 -0.029925035 -0.024625672 0.04140424
000090 c8 00 07 bd d0 1f 2d bd 40 6d 71 bc b2 0e a2 3d
       -0.03295973 -0.042266667 -0.01473552 0.07912959
0000a0 d8 41 89 3d a4 16 93 3d 00 b8 8b bc c0 2b fc 3c
       0.06702012 0.07182053 -0.017055511 0.03078258
0000b0 93 a4 19 3d f9 93 9e be 1b 83 bb bd 5f 01 7a be
       0.037510466 -0.3097227 -0.09155866 -0.24414586
0000c0 34 f6 20 bf 0d f8 3a bf b5 64 5a bf a8 46 4e be
       -0.62875676 -0.73034745 -0.85309917 -0.2014414
0000d0 6d 44 46 be 01 76 b3 be 69 53 90 3d bb 80 5b 3d
       -0.1936204 -0.35050967 0.07047159 0.053589564
0000e0 e3 42 8d 3d a4 b3 4e 3d dd 13 50 3d ec ff 16 bd
       0.06897523 0.050464287 0.050800193 -0.03686516
0000f0 d4 7a 7b bc 2e d3 7f 3c fa 4c f7 bc ba 38 eb bb
       -0.015349109 0.015614314 -0.030188072 -0.007178393
000100 4e 58 a9 bd 52 20 3c be 08 5e 92 bd 66 b3 c2 bd
       -0.08268796 -0.18371704 -0.07146841 -0.09506874
000110 ba ed ab bd d2 ee d8 3d 5e 66 2c 3e 4e b6 24 3e
       -0.08394952 0.10592426 0.16835925 0.16085169
000120 8a 1d b1 bd c0 6e d5 bd 39 7c 5c bd 38 8c 9b bd
       -0.08648212 -0.104215145 -0.053829405 -0.07595104
000130 2d 1e 54 3d b4 f4 d7 bd 27 25 1e 3d 80 5a d2 bd
       0.05178659 -0.1054472 0.03860965 -0.10271168
000140 28 df bc bd c7 6e 11 bc 83 51 f6 bb d5 3a b7 bb
       -0.09222251 -0.008876509 -0.007517041 -0.00559173
000150 2b 0e d1 bc 93 5b 99 bc a4 c7 8c bd 6b f7 73 bc
       -0.025519451 -0.018720424 -0.06874016 -0.014890532
000160 29 91 03 be 6b b0 3c bd 06 11 93 3b 0d ec 1b 3d
       -0.12848343 -0.046066683 0.0044881133 0.038066912
000170 e6 de 95 3d 73 86 c5 bc 67 cc ed bc 06 e0 e6 3c
       0.07317905 -0.024111962 -0.02902813 0.028182995
000180 f3 f4 75 bd b3 c3 c9 bb 27 bb 01 3d 2f 24 85 bd
       -0.060048055 -0.0061573624 0.031672623 -0.06501042
000190 97 bc 0e be 10 75 55 bd 2f 72 e5 bd 16 84 04 be
       -0.13939129 -0.052113593 -0.112034194 -0.12941012
0001a0 e5 a0 30 bd e8 71 ba 3d c1 c5 1c 3c ec 35 00 3d
       -0.04312219 0.09103757 0.009568633 0.031301424
0001b0 01 f4 57 3d 4c fc de 3a 02 11 f1 3d 25 7d 13 bd
       0.052722935 0.0017012446 0.11770822 -0.03600802
0001c0 f0 53 bf bc 9b 71 69 3d 88 c0 c8 3e c8 f1 e2 3e
       -0.023355454 0.05699311 0.3920939 0.4432509
0001d0 24 ac e6 3e 54 96 89 3d 7d da 46 3c 91 db 86 38
       0.45053208 0.06718126 0.012137053 6.430515e-05
0001e0 c2 51 93 3d d5 5d 80 3d c1 d5 ed bc 5e e9 82 bd
       0.071933284 0.06267897 -0.02903259 -0.063921675
0001f0 b0 0e 9b 3d e5 9a e1 3c 88 41 13 be 41 b4 ec bd
       0.07571161 0.02753968 -0.14380467 -0.11557818
000200 04 b5 66 be 4d b3 96 bd e4 e8 97 bc 02 4d db bc
       -0.2252999 -0.07358418 -0.018543668 -0.026770119
000210 24 b1 6d 3d 8f d6 e7 3d 5e 3d b0 3d ab 06 f8 b9
       0.058030263 0.11320221 0.08605455 -0.00047307214
000220 d6 2a 7b bd 26 87 89 3c ab 05 42 bd e0 49 6a 3c
       -0.06132015 0.016788077 -0.047368687 0.01429984
000230 40 23 5f 3c b6 12 b2 bc 2b f8 30 3d b6 94 49 3d
       0.013619244 -0.021737438 0.04320542 0.049214087
000240 74 8e 2e bd 91 7b 6c 3c 7a ea 69 bd 9b 31 e1 bd
       -0.042616323 0.014433757 -0.05710838 -0.109957896
000250 7a f3 39 3d 3e 8f f3 bd 4b 18 b6 bd 8f 96 e9 bd
       0.045398213 -0.11892556 -0.08891352 -0.1140567
000260 e4 ee 1a be ca 6c 8f bc 3b 0a 91 3d 2b bf c4 b7
       -0.15130192 -0.01750793 0.070820294 -2.345404e-05
000270 10 0f 9c bd 61 f0 51 bd 0f b9 88 bd c3 c8 1a bd
       -0.076200604 -0.051254634 -0.06675922 -0.037789118
000280 f8 20 80 bc 17 66 49 3d 0a 08 09 bb 98 48 c1 bc
       -0.01564072 0.049169626 -0.0020909333 -0.023594186
000290 13 54 f3 bc c3 3c bf bd 28 52 d3 bb 86 ae cc bb
       -0.029703176 -0.09337761 -0.006449003 -0.0062463908
0002a0 01 5e b0 bd 81 bd f7 3c c0 fb dd 3c 63 75 86 3d
       -0.0861168 0.03024173 0.027097583 0.065653585
0002b0 96 e3 eb bc 2d cb 90 3d 99 9d 3f 3d b1 a2 27 3d
       -0.028795045 0.07070003 0.046781156 0.04092664
0002c0 33 2a 02 bd be 18 76 3d 88 c6 9e bd aa 64 55 3b
       -0.031778526 0.06008219 -0.077527106 0.003256122
0002d0 16 26 8a bc 36 75 9a bc b6 32 91 bc 9b 73 18 3d
       -0.016863864 -0.018854719 -0.017724376 0.037219625
0002e0 e7 9f 80 3d d0 e3 89 3d 6b 96 1c bd f3 43 3b bd
       0.06280499 0.06732905 -0.038229387 -0.0457191
0002f0 d6 1b d0 bc 2d 34 c5 3d 6e 5c 77 3d 44 b4 1b bd
       -0.025403898 0.09629092 0.060390882 -0.03801371
000300 f7 1b ec 3d 4d 03 b3 bd 9f ad 4e 3b ae 91 c5 be
       0.11528771 -0.08740864 0.0031536592 -0.38587707
000310 af 54 81 be 6e 25 d0 be c9 7c 27 bc 31 c8 1a 3d
       -0.2525992 -0.40653557 -0.010222622 0.037788574
000320 8e b4 7f bd 03 b2 3a 3d 31 74 14 bd 3a 22 2f 3c
       -0.06242805 0.04557992 -0.03624362 0.010689313
000330 de 7f 92 3d af b4 4d 3b 81 82 7c 3c 71 76 f7 3a
       0.07153295 0.0031388213 0.015411974 0.0018879903
000340 d9 47 51 bd 4e 22 00 be 99 c6 8b bd 8d 8e 83 bd
       -0.05109391 -0.12513086 -0.06824989 -0.06423674
000350 97 3c 67 bd 09 23 5b bd eb ca bf 3c 02 b5 b5 bd
       -0.056454267 -0.05350021 0.023412189 -0.08872415
000360 62 37 85 bd f8 69 5c bd 75 d3 b6 3b ac 7b 5c b9
       -0.06504704 -0.053811997 0.005579407 -0.00021026906
000370 96 2e ab bd 70 db 90 bd ab d0 8a 3d de 9f 44 bd
       -0.08358495 -0.070731044 0.067780815 -0.048004024
000380 01 cb 43 3c ab d7 3b bd cf d7 14 3d c9 4f d0 3d
       0.011950255 -0.045859974 0.036338624 0.10171468
000390 b9 c6 16 3d 0f 98 a3 bc 2e 4d b2 3d dd 0f 78 3d
       0.03681061 -0.019969968 0.08706127 0.060562003
0003a0 ea 4f 82 3c 43 ae 09 bc 16 b6 45 bb 5a 7f 2b bd
       0.015907247 -0.008403364 -0.0030168346 -0.0418695
0003b0 2b 36 89 bd c0 c1 cc bc 24 79 09 3d 6e 5d 8a 3d
       -0.06699785 -0.024994731 0.033562794 0.067561015
0003c0 c7 34 9e 3d 5b 02 91 bd bf 4d 85 3d e5 50 a2 bd
       0.0772491 -0.070805274 0.065089695 -0.07925586
0003d0 c2 61 2a bc d6 3c 0e bd 10 10 ea 3b 54 f0 a3 3d
       -0.010399284 -0.034725986 0.007143028 0.08004823
0003e0 0e 70 a0 bd 4a 23 28 bd 7e 5f 0e bb c5 93 61 bd
       -0.07833873 -0.04104928 -0.0021724398 -0.055072565
0003f0 81 0d 86 3d 22 56 12 3e 93 3b b1 3d 2c 95 06 3e
       0.065455444 0.1429067 0.08653941 0.13142842

bias f4 [16]
000000 47 a1 da bc 3c 33 55 bc 8b b8 c9 3a 4c 39 87 3c
       -0.026688231 -0.0130127035 0.0015390081 0.016506813
000010 43 91 4c bc 9e d9 a6 bb 29 ca d5 3d 1f f1 1d 3d
       -0.012485805 -0.00509186 0.104389496 0.03856003
000020 cc cf 28 3d 8b 24 88 bd 22 05 fd bc 01 d2 b1 bd
       0.041213796 -0.06647595 -0.030886237 -0.08682633
000030 ce 2b a5 bc 61 36 c1 bd 65 18 85 3d e6 68 99 3c
       -0.02016249 -0.094342 0.064987935 0.018726777

weight f4 [32, 16, 3, 3]
000000 86 cc 68 3d 93 56 bf 3d f6 6a 1f bd eb c4 ae bc
       0.056835674 0.093426846 -0.038920365 -0.021334132
000010 0d a4 12 3c a8 11 03 bd cf 2e ac bd 73 fc 2d be
       0.008950246 -0.03199926 -0.084073655 -0.16990833
000020 8d 8c 61 be 7e dd af 3d 08 1e 6b bd 8f af 8b bd
       -0.22026272 0.08587168 -0.057401687 -0.068205945
000030 14 ed b6 bc fa 0d 71 bd 28 8c 39 bd d6 95 56 3d
       -0.022329845 -0.05885122 -0.04529968 0.05238899
000040 3a e8 c4 3c 90 07 3a bd e1 2f 82 3d 35 79 fb 3c
       0.024036516 -0.04541737 0.063567884 0.030697444
000050 6b 8c 11 bc 98 8c 14 3c 9e 9a 8f 3d fe 64 b7 bd
       -0.008883576 0.009066723 0.07011913 -0.089548096
000060 60 96 fd bc 8a 6b 16 bd 9d 7f 9d bd 91 ec 28 3c
       -0.030955493 -0.03672365 -0.07690356 0.010310308
000070 11 16 fa 3b 04 0a ad bd c2 d4 be bd b0 13 22 3d
       0.007632025 -0.08449176 -0.09317924 0.039569557
000080 c1 c9 01 3d b5 57 1a bd 5d 56 7a 3c 65 d3 cb bd
       0.03168655 -0.0376813 0.01527938 -0.0995243
000090 87 8c 69 bc 3b c1 91 bd a1 76 1e bd 3d b6 5c 3d
       -0.014254696 -0.07116934 -0.038687352 0.053884733
0000a0 05 24 d5 bc d9 76 fd 3a fa ee 18 bd c6 c1 97 bd
       -0.026018152 0.0019337788 -0.03733728 -0.07410006
0000b0 49 c9 8b bd e7 26 08 bc b4 6a 93 3d 13 2e c3 bc
       -0.068255015 -0.008310056 0.071980864 -0.02382568
0000c0 99 d3 de 3b ba 44 97 bd fe 4c a0 bd 73 ba 46 bd
       0.0068001268 -0.073861554 -0.07827185 -0.048517656
0000d0 26 99 56 3d 98 60 ba 3c 4d b1 eb 3b aa 56 67 bd
       0.052392147 0.022751138 0.0071927668 -0.056479134
0000e0 e4 82 8a bd 6f 6a 89 bc a8 c1 77 3d 43 5c 84 3d
       -0.06763247 -0.016774384 0.06048742 0.0646291
0000f0 77 e6 10 3d e4 ee 94 bd e7 89 8a bd 7d b2 ec 3c
       0.03537604 -0.07272127 -0.06764584 0.028893704
000100 e9 bf 4c bd 10 70 6d 3d 29 92 81 3d a4 61 86 3d
       -0.049987707 0.0579682 0.06326706 0.06561592
000110 b6 fd 92 3d 16 55 00 bd dd 4d 39 bb 4c a9 7d 3d
       0.07177298 -0.031331144 -0.002827517 0.061929032
000120 b7 9a d0 3b a4 62 ad 3d 85 62 80 bd 37 86 e3 3b
       0.0063660997 0.0846608 -0.06268791 0.00694349
000130 ed 2d 5d 3d ee 0c e2 3c 5e 91 8e 3c 60 20 b1 3c
       0.053998876 0.027594056 0.0174033 0.021621883
000140 5c 07 17 bd 91 16 77 bd 0c 89 f1 b9 23 eb a0 bc
       -0.036872253 -0.060324255 -0.0004606921 -0.019643372
000150 ec 48 e7 bc b1 7c a2 b9 c4 f0 e1 bc 45 9d c1 bd
       -0.028233014 -0.0003099195 -0.027580626 -0.09453825
000160 2b 22 52 3d 13 48 ae bd d9 95 a4 bd 8b d1 81 bd
       0.051302116 -0.08509841 -0.08036394 -0.06338795
000170 8b f1 ca bd 6a f6 44 3d 83 4c 30 bc b0 31 4b ba
       -0.09909352 0.04808656 -0.010760429 -0.00077512395
000180 78 0d d5 bd f6 0e 87 bd 80 ac 88 3d 8e 0e 97 bd
       -0.104029596 -0.065946504 0.06673527 -0.07375823
000190 b4 76 d9 3c b4 46 2d 3c e4 1a b3 bd 54 9c 1c 3d
       0.02654586 0.010575939 -0.08745363 0.038235024
0001a0 fa 0a 36 bd b0 27 92 3d 63 cb d1 3b 37 b2 9a bd
       -0.04444406 0.07136476 0.0064024194 -0.07553523
0001b0 74 83 7b 3d 97 e0 3f bd 68 75 f7 3b 77 04 69 3d
       0.06140466 -0.046845045 0.0075518377 0.056889024
0001c0 91 00 12 3d 9f 60 82 bd 43 49 40 bd bc 69 53 3d
       0.03564507 -0.06366085 -0.046944868 0.051614508
0001d0 ec f7 be bc d0 8b 43 bd 51 3f 62 3c b4 b6 06 3c
       -0.023311578 -0.047740757 0.013809041 0.008222271
0001e0 03 3e bf bc fe 83 b9 ba 29 d1 67 bd 86 0a 01 be
       -0.023345 -0.0014153717 -0.056595955 -0.1260167
0001f0 6c 6e 12 3d 17 cd 16 3d b6 ed 95 bd 26 21 c4 bb
       0.035749838 0.036816683 -0.073207304 -0.005985397
000200 ec cf 13 bd 81 ee b5 3d bd c7 7c 3d fd 73 d9 3c
       -0.03608696 0.08883382 0.061713923 0.026544565
000210 db 7d a2 3d 29 77 4f 3d 6a e8 bc bc 8c 88 14 3c
       0.07934161 0.05065075 -0.023060042 0.009065758
000220 33 88 a8 3d ce 23 d9 3d f9 dc 74 bc 82 e9 d8 bc
       0.08229103 0.10602532 -0.014945262 -0.026478533
000230 c4 01 8d 3d 9f 9b 22 3e cc ed cc 3d a3 54 06 3e
       0.068851024 0.15879677 0.10006294 0.13118224
000240 4d a1 5c 3d 9c d6 2e 3c 39 27 a7 bd fb ba d7 ba
       0.053864766 0.010671284 -0.08161778 -0.0016458923
000250 a3 10 0c 3c 96 cf 01 3d c9 8b 84 3d e7 c3 e8 3c
       0.008548888 0.03169211 0.064719744 0.028413726
000260 03 25 a6 bb 5b ea 2e 3c fd 68 9b bc ee 9f 8e 3d
       -0.00507033 0.010675992 -0.01897096 0.06964098
000270 f7 12 dc 3c 9b b5 53 3d b3 c0 58 bd ed 1a 75 3c
       0.026864512 0.051686864 -0.052918147 0.014960033
000280 3e 83 d9 3d e3 c3 a4 3d 46 8c 45 3d 08 a9 bf 3d
       0.106207356 0.08045175 0.04822948 0.09358412
000290 42 3e ba 3d 56 7d e7 3d 51 42 98 3d f0 c4 98 3d
       0.09093906 0.11303203 0.07434524 0.07459438
0002a0 ab 56 dc 3c ef 0b a4 3b a9 28 c8 3d 56 9e 87 3d
       0.026896795 0.0050063054 0.0977338 0.06621997
0002b0 9b a8 0d 3c d1 a3 8a 3d 38 32 c0 3c 14 a8 4d bd
       0.008646156 0.06769527 0.023461446 -0.05020912
0002c0 30 37 27 bd 8f 3b 16 bd 23 ee 94 bd 9c 22 86 bd
       -0.040824115 -0.036677893 -0.072719835 -0.0654957
0002d0 2a 64 47 bd e9 f4 bf 3d 7c 26 8e bd 1f 2e ab 3d
       -0.04867951 0.09372885 -0.06940934 0.08358406
0002e0 04 89 e6 3c 05 cf 3c 3d d1 1b f0 3d e5 46 14 bc
       0.028141506 0.046095867 0.117240556 -0.009050106
0002f0 bf e9 a3 bc b0 16 73 3d 41 99 73 bc b5 ec dd 3d
       -0.02000892 0.05934781 -0.014868082 0.10836164
000300 80 13 d1 bb 9b a2 d0 3d 0e 79 cd 3d 6c 9e 0a bd
       -0.0063804984 0.101872645 0.10032855 -0.03384249
000310 99 ca a0 3d d0 2d 29 3d bb 0d 38 bd 7b b5 b3 bd
       0.078511424 0.041303456 -0.04493497 -0.08774849
000320 47 d3 a5 bd 8a 6b 3e bd a9 a2 54 bc 8a a1 c2 3c
       -0.080969386 -0.046489276 -0.012978234 0.023758668
000330 dc 0b d3 bd 8f 12 9d bb dc 6a ec bc 9e 2b 0f bd
       -0.10304996 -0.004793472 -0.028859548 -0.034953706
000340 9a 8c 2c 3c 0f 28 4a bd 5d 8c 58 3d 8a aa 94 bc
       0.010531569 -0.04935461 0.052868236 -0.018147726
000350 21 e9 bf bd a7 c0 96 3c f9 d1 81 3d 4f 57 97 38
       -0.09370638 0.01840241 0.06338877 7.2165036e-05
000360 ce d3 41 3d 24 50 1a 3d 94 08 5f 3c e1 c1 96 3d
       0.047321133 0.037674084 0.013612885 0.07361198
000370 5f 6f 08 3e 76 b3 a7 3a 1c 74 b1 3d 3b 31 07 3c
       0.13323735 0.0012794572 0.08664724 0.008251484
000380 10 77 21 bd e1 c1 2d bd fc 0c 45 bb d7 64 eb 3d
       -0.039420187 -0.042421225 -0.0030067554 0.11493843
000390 1e 20 98 3d 7e 56 77 3d ff c0 57 3d 74 9b b1 bb
       0.07428001 0.06038522 0.05267429 -0.005420143
0003a0 d9 bc cb 3d 33 f2 aa bb 35 ff 93 3b 73 f5 8e 3d
       0.09948129 -0.0052168607 0.004516507 0.069804095
0003b0 06 6c 6a 3d 78 56 0e bd 0c 82 9a 3d 91 e0 e2 bc
       0.057231925 -0.03475043 0.07544336 -0.027694972
0003c0 b6 6e 85 bc 2c 88 16 bd c4 d6 fa bc df 0f aa 3d
       -0.016288143 -0.036750957 -0.030619986 0.083038084
0003d0 e3 de bf 3d 91 ea cb 3d 24 92 e5 3c da 40 5d bd
       0.09368684 0.09956849 0.028023787 -0.054016925
0003e0 36 69 84 3d 35 6c c7 3d fe 0e 0f 3c 3b 3d da 3d
       0.0646538 0.09737436 0.008731602 0.1065621
0003f0 e1 d8 5b 3d 42 9d 17 bd 85 63 15 bc 4e 3e 27 bd
       0.05367363 -0.037015207 -0.009117966 -0.040830903

bias f4 [32]
000000 65 3b 73 3d c7 a4 78 3c e4 70 99 3d fb f9 6f 3d
       0.059382815 0.015176005 0.07492235 0.05858801
000010 a5 f9 48 3c 88 c0 9e 3d 5e f5 f3 bc ab 6e df 3c
       0.012266551 0.07751566 -0.029780086 0.02727445
000020 49 c2 04 bd 4e cd b9 bd 90 d7 b7 3d eb ca 2f 3c
       -0.032411847 -0.09072362 0.08976662 0.010729532
000030 e6 f2 cc bc 76 bd 61 3d 88 6c b9 bc 82 58 2b bc
       -0.025018167 0.055112325 -0.02263476 -0.010458114
000040 8d ed 95 bc 72 fa 95 bd 35 03 ff 3c 98 aa 73 3d
       -0.01830175 -0.07323159 0.031129459 0.059488863
000050 b3 9a ac bb 01 65 93 3d 03 4b 95 3d 37 45 ac 3c
       -0.005267465 0.07196999 0.07289698 0.021029098
000060 67 c1 70 3d a1 b7 77 bd 2c 88 a0 bd 39 33 78 bd
       0.058778193 -0.060477857 -0.07838473 -0.060595725
000070 08 b5 c2 bd 85 4c a2 3b 51 bb a6 bd 85 c3 87 3d
       -0.09507185 0.0049529695 -0.081411965 0.06629089

weight f4 [32, 32, 3, 3]
000000 5a 7e 4c bd 46 41 48 3d fa d4 e4 3c 88 2a e7 3b
       -0.049925186 0.048890375 0.027933586 0.0070546307
000010 1e 3f 40 3d cd 7c 71 bb b6 c9 34 bd b9 81 55 3d
       0.046935193 -0.0036848069 -0.04413768 0.052125666
000020 b8 12 89 3d ea 58 b9 bc 3e 2d 0a bd be 05 5e bd
       0.066930234 -0.022625405 -0.033734553 -0.054204695
000030 b3 10 08 3c d2 51 96 3c dd 18 96 bd 2b 04 91 3d
       0.008304763 0.018349562 -0.07328961 0.07080873
000040 48 d0 59 3c 7b c1 f3 3b 6a 29 4a bd 4b 11 ab 3b
       0.013294287 0.007438836 -0.0493559 0.0052205673
000050 56 1b 63 bd d3 67 d4 3c 02 7a 03 bd 61 08 a4 bc
       -0.05544599 0.025928413 -0.032098778 -0.020023527
000060 41 06 33 3d 8f 65 3b 3c f0 60 77 3d e0 2d e1 3c
       0.043707136 0.011437788 0.06039518 0.027487695
000070 d9 86 ff bc d9 66 21 bc 22 35 6e bd 91 cd a8 3b
       -0.03119223 -0.009851181 -0.05815614 0.0051514586
000080 60 07 88 3c 6b 64 4b 3d 5d 3a 4a bc 5c 8e ec 3c
       0.01660508 0.049656313 -0.012343016 0.028876476
000090 c6 c9 6f 3d b9 8a 8a 3c 55 6e 4b 3d 0a 72 9e bc
       0.058542036 0.016911851 0.049665768 -0.019341487
0000a0 1c 95 5d 3a 3b 74 06 3d 10 8e 3d 3d 7f 3d f3 3c
       0.00084527 0.03282569 0.04627806 0.02969241
0000b0 bf 82 c3 3c 2c c3 76 3c 6e 31 89 bc 82 9f d9 3b
       0.023866056 0.015061181 -0.016747203 0.0066413293
0000c0 18 d4 99 bc fc 0a 95 bc 2d 0e 84 bc 84 d5 c6 bb
       -0.018777892 -0.018193714 -0.01612004 -0.0060679335
0000d0 23 e2 50 3c df 6e 8a 3c 90 5c 65 bd 43 92 27 bc
       0.012749228 0.01689857 -0.055996478 -0.010227743
0000e0 a5 f3 13 bd 19 7f 34 bd 3c a2 2d bd 90 74 41 bd
       -0.03612103 -0.044066522 -0.042391047 -0.047230303
0000f0 1c fa 37 bd 17 8e b0 bd 4e b3 ae bd 78 3e 7c 3d
       -0.044916257 -0.086208515 -0.085302934 0.061583012
000100 84 10 63 bc 5a c9 0b bb 20 99 9b bb 5b f3 5d 3d
       -0.013858918 -0.0021329732 -0.0047484785 0.05418716
000110 a5 ce 60 3c f9 14 2d 3c 34 58 c1 bc 97 75 91 bc
       0.013721143 0.010564082 -0.023601629 -0.017756267
000120 cc ed 3e bb 98 5a 6a 3d da 43 24 bd 05 95 50 bc
       -0.0029133437 0.057215303 -0.04010377 -0.0127308415
000130 e4 85 24 3d 61 e9 49 3c 24 00 0d bd 8e 15 23 bd
       0.04016675 0.012323708 -0.034423962 -0.039815478
000140 c5 06 0f bd 4d 98 0b 3c 6a b2 89 3c dc 84 51 3d
       -0.034918565 0.008520198 0.016808707 0.051152095
000150 03 5d d8 bd 15 cb 82 bd d3 87 7b bd 5d 62 6e 3d
       -0.105646156 -0.06386391 -0.06140883 0.058199275
000160 6a 9b e3 3d 95 4a 99 3d f4 61 15 3d 9d 58 24 3d
       0.11113627 0.074849285 0.03647037 0.04012357
000170 7a f9 72 3a 8b db 1e 3d 2c fc 35 bd f3 49 1c 3d
       0.0009268742 0.03878359 -0.044429943 0.03815646
000180 9c 49 f2 bc 14 0a 54 bd 6f 2c 78 3c 28 24 2f bd
       -0.029576115 -0.051767424 0.015147313 -0.04275909
000190 72 75 08 3d d9 37 93 3b 3a fc df 3c 32 e1 4e bd
       0.03331513 0.0044927415 0.02734195 -0.05050773
0001a0 f7 53 0b bd 02 d7 58 3d 88 4e 01 bd fe c4 5a 3d
       -0.034015622 0.052939422 -0.031569034 0.053410523
0001b0 fe 71 38 3d d4 f4 c6 3c 54 6f 30 bc 71 00 c2 bc
       0.045030586 0.024286665 -0.01076873 -0.023681851
0001c0 70 f8 54 3d 9a 51 86 bb f5 c8 54 3d 89 8e 43 bd
       0.05199474 -0.004099083 0.05194946 -0.047743354
0001d0 05 7c 6e 3d 6c 66 98 3d 91 cb cc 3a d0 48 0c bd
       0.058223743 0.074414104 0.0015624632 -0.034249127
0001e0 4a 19 5d bd 5c 2c 75 3b 6a f9 63 bd 94 8c 13 bd
       -0.053979196 0.0037410473 -0.05565778 -0.036022738
0001f0 8f 69 31 bd 01 57 5c 3b ee 97 3e 3c 50 a2 80 bd
       -0.04331356 0.0033621194 0.011632903 -0.06280959
000200 08 ae cf bc 66 3b a7 bc f6 06 d8 3c 42 bd 65 bd
       -0.02535154 -0.020414066 0.026370507 -0.056088693
000210 c2 3f a7 bc 51 4e 46 bd 3d df 1d 3d ca 6f 51 3c
       -0.020416144 -0.048414532 0.038542975 0.012783
000220 76 1e 69 3d b2 c9 9b 3c 8f 3d c2 bd 86 a4 b2 bd
       0.056913815 0.019017074 -0.094843976 -0.087227866
000230 e3 d6 fe bd d2 22 96 3d 83 47 8e 3d 8a f6 a5 3d
       -0.1244333 0.0733086 0.069472335 0.08103664
000240 3b 49 fc 3b 0e 4c 1b 3d b4 9b 59 3d e4 7c 66 3c
       0.0076991594 0.03791433 0.053127006 0.014067862
000250 bf 4b 33 3d 3d 0e 25 3d e2 44 b6 3d 2e aa 81 3c
       0.04377341 0.04029678 0.08899857 0.015828218
000260 e5 b5 2f 3d c3 2c ab bc a5 66 11 bc fc 45 85 bd
       0.042898078 -0.020895367 -0.00887457 -0.06507489
000270 0c 67 b3 bc 9e 7b 8d bd 94 46 a0 bd f6 4a 7e bc
       -0.021899723 -0.06908344 -0.07825962 -0.015520802
000280 39 d0 19 3d 4b ab 89 bc d8 05 29 3d b9 c2 fa 3c
       0.037552092 -0.016805312 0.04126534 0.03061043
000290 1c d1 7c bc 7e c8 70 bd 69 f3 0c 3b 58 bc bf bc
       -0.015430715 -0.058784954 0.0021507388 -0.023405239
0002a0 99 af e5 ba 68 65 ef 3c 9a 3c 90 3b 60 69 68 bd
       -0.0017523646 0.029223159 0.0044017555 -0.05674112
0002b0 43 99 7f bd 5d 3c bb 3b a1 45 72 bc ce 6c 83 bc
       -0.06240202 0.005713983 -0.014787109 -0.016043093
0002c0 1d e5 1b bd f9 10 23 bd 36 28 7a bd d8 76 33 bd
       -0.038060296 -0.03981111 -0.061073504 -0.04381451
0002d0 bf 3a ed 3c 6e bc bd bc aa 33 9b bc 5b 21 a3 bd
       0.028958676 -0.02316114 -0.018945534 -0.079653464
0002e0 3f ce 95 bd 94 71 32 3c 74 7b 54 3a fb d1 99 bc
       -0.07314729 0.010891337 0.0008105554 -0.018776884
0002f0 7c 82 c8 3d 61 59 cb bb ee 67 95 bc 58 31 2b 3c
       0.09790513 -0.006205723 -0.018238034 0.010448776
000300 d1 47 14 bc c7 62 75 3d 90 4a cd 39 38 46 12 bd
       -0.0090503255 0.059908655 0.000391562 -0.035711497
000310 42 74 22 bd f7 ff 05 bd e8 e8 31 bd b4 95 98 bb
       -0.039661653 -0.03271481 -0.043435007 -0.004656518
000320 67 0e 66 3d 96 2a 4c 3b 1b 0f b8 3c 7c f5 9c bd
       0.05616608 0.0031153313 0.02246814 -0.0766401
000330 1b ff 2a bd a8 8b 2a bd b6 93 0b bd 09 a8 08 3c
       -0.041747194 -0.041637093 -0.034076415 0.008340844
000340 95 30 79 3d aa 0d e2 3c ac 13 35 3d 0a b8 7b bc
       0.060837347 0.027594406 0.044208214 -0.015363703
000350 89 e3 39 3d a1 99 6f ba 6d 4e 78 3d fd 30 87 bb
       0.04538301 -0.0009140019 0.060621668 -0.004125713
000360 83 b9 25 bd 3d 34 da 3c 4a d0 02 bd 3b 64 57 3d
       -0.04046012 0.026636237 -0.03193692 0.05258582
000370 d0 8c 3a 3d e1 c6 31 3d bf d0 b4 3c 79 88 03 bd
       0.045544446 0.043402556 0.022072194 -0.032112572
000380 a0 fc 32 bb 89 e9 27 3d 26 c6 ae bc c4 d2 ea bc
       -0.002731122 0.0409942 -0.021334719 -0.028664954
000390 d7 0b 89 bc fa 25 91 3d ae 39 3b bd 7c 7e f3 3c
       -0.016729278 0.070873216 -0.045709305 0.029723398
0003a0 aa f4 aa bc 54 cd c9 3c 66 27 c4 3c 61 72 4a bd
       -0.020868618 0.02463404 0.023944568 -0.049425486
0003b0 e2 33 06 bd f6 d6 21 3d 7b f3 17 3a a3 e2 4d 3d
       -0.032764323 0.039511643 0.0005796474 0.050264966
0003c0 9f 37 49 bc a7 d7 67 3d 4b 42 7b bc 24 2e 0c 3d
       -0.0122813275 0.056602146 -0.01533563 0.03422369
0003d0 82 8e 6b bd d2 ce fa bb f1 85 c8 39 bd 08 85 bc
       -0.057508953 -0.0076540494 0.00038246767 -0.016239518
0003e0 10 bf 30 3b 07 fd e3 bc 22 12 8a 3c ad 86 75 3d
       0.002696935 -0.027830614 0.01685435 0.05994289
0003f0 61 d8 2c 3d d4 75 24 bd 56 17 6b bd c0 cd 83 bd
       0.042198543 -0.040151432 -0.0573953 -0.06435728

bias f4 [32]
000000 2b 2c 9b 3c fb 39 a5 bc 8e 81 b4 3c 4c 0a 56 3b
       0.01894196 -0.020169249 0.022034433 0.0032659946
000010 87 26 22 3d ef e1 ee bc c7 d9 86 3c af bd 53 3d
       0.039587524 -0.029160468 0.016461266 0.05169457
000020 e6 2f 62 bd ec 18 92 bc 49 f9 bf 3b a5 b0 11 3d
       -0.05522146 -0.01783415 0.0058585745 0.035568852
000030 de 48 98 bd 02 65 fc ba ae ad 8f bc 60 a9 3d bb
       -0.07435773 -0.0019256177 -0.017538872 -0.0028940067
000040 57 83 f6 3c 7a ff ad bc 59 77 16 3c 65 e2 82 ba
       0.030091925 -0.021239985 0.009183728 -0.0009985684
000050 df f3 8b 3c 73 00 38 bd 2b 02 c4 3c 4c 11 ac 3c
       0.01708406 -0.044922303 0.023926815 0.021004342
000060 1e 64 98 3c f5 82 5e 3c eb 3f d5 3c a8 3b 0c 3d
       0.018602427 0.013581027 0.026031455 0.03423658
000070 78 70 18 bd ff fc 5d bc 6f 3b 1a bc 48 84 62 3d
       -0.037216634 -0.0135490885 -0.009413584 0.055301934

weight f4 [64, 32, 3, 3]
000000 f2 ec 8f 3c eb 8c de bb 81 56 1a 3c 98 e6 ef bc
       0.017569039 -0.006791701 0.009420038 -0.02928476
000010 88 ec c6 bd f6 20 01 bd 9a f7 74 bb 2d 26 b9 bd
       -0.097130835 -0.031525575 -0.0037379027 -0.090404846
000020 0e 2f a5 bd 22 af ad 3b fc 2d f9 bc 5e b5 36 3d
       -0.080656156 0.0053004185 -0.030417435 0.04460656
000030 73 d0 30 3d 39 c2 9d 3d 3f 7b 98 3d b1 99 82 bb
       0.043167543 0.07703061 0.07445382 -0.0039856066
000040 50 8a 1a bc bf 39 a1 3d ea c5 21 3d 05 d9 cb 3c
       -0.00943239 0.07872342 0.039495386 0.024883756
000050 c6 fc ce b9 60 85 8c 3d b8 95 0f bd 02 57 82 3d
       -0.00039479713 0.06861377 -0.035054892 0.06364252
000060 d6 17 a7 3d c0 5a 92 3d 7a c4 bc bc 76 31 18 3d
       0.08158843 0.071462154 -0.023042906 0.037156545
000070 0f f6 37 3d 7e 43 18 3c 2a 27 8b bb db c4 c3 3c
       0.044912394 0.009293435 -0.004246612 0.023897579
000080 03 fe c4 3c 56 6c 4d 3d a8 3d d9 3c 0a a0 86 bb
       0.024046903 0.050152145 0.026518658 -0.0041084336
000090 d1 34 2b bc 32 12 ca bc b8 fc 8b bd dc ec ae bd
       -0.010449604 -0.02466688 -0.06835312 -0.08541271
0000a0 cc 10 95 bd 4b a6 b7 bd ab 89 c5 bc b4 17 b0 bd
       -0.072785944 -0.08967265 -0.024113497 -0.08598271
0000b0 b6 f5 66 bd 76 7e 72 3d 74 67 6a 3d f5 0d 9d 3d
       -0.056386672 0.059202634 0.057227567 0.07668678
0000c0 a8 df a6 3b 7a a5 35 3c 8d ac 08 bd ca bd 4c 3a
       0.00509258 0.011086816 -0.033367682 0.0007810263
0000d0 0c a7 98 3c 7a 98 22 3d 96 72 c0 3b 82 ce b9 bc
       0.018634342 0.039696194 0.0058730347 -0.022681478
0000e0 a2 f0 e2 bc 43 94 31 bc f0 2b 9e bd 46 39 9d 3c
       -0.027702633 -0.010838571 -0.07723224 0.01919235
0000f0 54 d0 c8 3c 7f 7e 58 bd 60 f4 64 bd f3 9a 74 bd
       0.024513401 -0.05285501 -0.055897117 -0.059718084
000100 69 43 b4 bc f4 f5 14 3c 14 bc 78 3c 89 10 6c bc
       -0.0220048 0.009091843 0.01518156 -0.014408239
000110 71 c0 ae bc b3 a9 74 bc 8f dc 01 bd 3b 2e e0 3c
       -0.021331998 -0.014933038 -0.03170448 0.027365794
000120 55 ec 76 bb ad a0 4f 3c db 04 24 3d bb 51 6a 3d
       -0.0037677486 0.012672585 0.040043693 0.05720685
000130 69 62 73 3d bc 93 21 3d d2 24 26 bc 05 dd 7f bc
       0.059420023 0.03944753 -0.010140615 -0.01561666
000140 7b 8f 21 3d 46 f6 2c bd 14 93 37 bc 28 74 c5 3c
       0.039443474 -0.042227052 -0.0112045 0.02410324
000150 54 65 cc bc fc b8 64 bc 29 98 26 bc ed d7 2f 3d
       -0.02495066 -0.013960119 -0.010168114 0.042930532
000160 15 3f 3a 3d 5d ff 2e bc 77 c9 4f 3d c1 8b ed 3c
       0.045470316 -0.010681001 0.05072924 0.028997304
000170 a0 ef f1 3b 02 5b c3 bc 61 de 32 3c 3e 9f 2b bd
       0.007383302 -0.023847107 0.010917277 -0.041899912
000180 6c 9d 08 3d 9b 94 42 bc 3b 3b 97 3d d1 bd 99 bc
       0.033353254 -0.011876251 0.07384344 -0.01876727
000190 37 8d d4 39 af 99 f6 bc 3b 81 4f bd 88 76 60 bd
       0.00040541004 -0.030102579 -0.050660353 -0.05480054
0001a0 33 78 f6 bb 7d 8d 94 bd 31 55 2d bb 76 5e 6b bd
       -0.007521653 -0.07253549 -0.0026448483 -0.05746313
0001b0 41 83 e5 3c df 47 43 bd ca 2f ad 3b 59 32 0f 3c
       0.028016688 -0.047675963 0.005285238 0.008740031
0001c0 f9 02 4a 3d cc 4f 07 3d 43 3e bd 3c 44 59 08 3d
       0.04931924 0.033035085 0.023100978 0.033288255
0001d0 c3 47 1c bd c2 0e cd 3b 05 99 fb 3b ec a0 97 3c
       -0.038154375 0.006257863 0.0076781535 0.01850935
0001e0 81 2f 27 3d 3c 6e 65 bc f4 91 61 bd 64 6a 3c bd
       0.040816788 -0.014003333 -0.055070832 -0.0459999
0001f0 80 bb 87 3b fe 50 e5 bc 0b aa 58 bd a8 86 15 3d
       0.004142225 -0.027992722 -0.05289654 0.03650537
000200 be b1 c3 3c 3d 6c dd 3b b7 70 8d bb c5 6e b8 3c
       0.023888465 0.006757288 -0.004316415 0.022513757
000210 82 50 36 bd 55 5a 8a bd 15 3e 45 bd 9c 6f af bc
       -0.044510372 -0.06755511 -0.04815491 -0.021415524
000220 28 58 c5 3c e0 e0 f2 bb cd b6 a6 3c 59 71 89 bc
       0.024089888 -0.007412061 0.020350838 -0.016777681
000230 8c c0 84 bd d6 de 82 bb cb ca 43 bd d3 30 20 3d
       -0.06482038 -0.0039938493 -0.04780082 0.039109062
000240 35 20 63 bd 94 f1 61 bd 96 3a 4e 3c f8 15 f3 bc
       -0.055450637 -0.055162027 0.01258721 -0.029673561
000250 19 f5 98 bd a7 c0 a0 3a 70 28 94 bb 2f 4f 88 bd
       -0.07468624 0.0012264446 -0.004521422 -0.06655728
000260 86 75 0b bc 79 e7 75 3c 89 fe 23 3c 1f 95 75 3d
       -0.0085119065 0.015008801 0.010009416 0.059956666
000270 45 db ab 3c eb 3f 58 3d fe c3 1a bd 97 37 85 3c
       0.02097858 0.052795332 -0.03778457 0.016261859
000280 df 3d bd 3c b3 32 c9 3c 9b 53 fa 3c 11 37 4d bc
       0.023100791 0.024560308 0.030557444 -0.012525336
000290 8b f9 46 bd 88 d0 c8 3c be 43 9b 3c bd 35 9a bd
       -0.048577826 0.024513498 0.0189532 -0.07529781
0002a0 e2 a7 3b bc 2d 3c 86 3c f4 01 1f bd db b6 b1 bd
       -0.011453601 0.016386116 -0.038820222 -0.08677455
0002b0 df 5a b1 bd 83 3e 1a bd 71 6d c1 bd 18 e1 ab bd
       -0.086599104 -0.037657272 -0.094447024 -0.083925426
0002c0 01 31 a0 bd 49 69 b0 bd 5a 2e d9 bd fd 6b 86 bd
       -0.07821847 -0.086138315 -0.10604544 -0.06563566
0002d0 88 26 31 bd 17 85 3f bd 71 80 54 bd 02 f2 ce 3c
       -0.043249637 -0.046757784 -0.051880304 0.025261883
0002e0 d0 f7 1b 3b b0 02 0b 3d 87 c9 09 bd 92 d2 5a bd
       0.002379883 0.03393811 -0.033639457 -0.05342347
0002f0 da e7 14 bd 29 0c d2 bc eb c2 35 bd ea 72 01 bd
       -0.036353923 -0.025640564 -0.04437534 -0.03160373
000300 d7 91 e3 bc 1a 7e 1c bc 11 8f 8e 3d 9c 29 8a 3d
       -0.027779503 -0.009551549 0.069608815 0.067462176
000310 e1 a7 89 bc a7 58 21 bd f1 a7 1e bd 32 57 93 bd
       -0.016803684 -0.039391186 -0.03873438 -0.071943656
000320 a1 a9 a5 3c 6d 95 0f bd c8 fb 40 bd 2e 3b d5 bc
       0.020222487 -0.035054613 -0.047115117 -0.026029196
000330 56 78 9d bd b6 4c 3c bd ab dc af bc 48 b9 6e bd
       -0.07688968 -0.045971595 -0.021467527 -0.058282167
000340 27 be 45 bd 94 25 fe 3c ba 05 a5 bc b8 1d a6 bc
       -0.048277047 0.031023778 -0.020144332 -0.020277843
000350 fb 27 6a bd 9d f7 8e 3c d2 44 39 3c 1c 9c 4d bc
       -0.057167035 0.017452056 0.011307912 -0.012549426
000360 a9 55 75 3c 5b f7 27 bc 0f 87 29 bd 4a a9 2e 3d
       0.014974036 -0.010251845 -0.041388568 0.042641915
000370 31 24 61 3c e5 16 82 bb 6b 05 ae bc e1 d9 d6 3c
       0.013741539 -0.0039700144 -0.021242818 0.02622694
000380 62 85 ab 3c 96 1c c5 bd d9 27 c2 bd ab 2f ad bd
       0.020937625 -0.09624593 -0.094802566 -0.084563576
000390 79 a1 dc bd ad cb f9 bc a7 d0 fc bd c8 17 2e ba
       -0.10772986 -0.030492628 -0.12344485 -0.0006641117
0003a0 51 33 c8 bd 88 b8 81 bc 1f e0 6e bc 79 ae 7c bc
       -0.09775413 -0.015835062 -0.014579802 -0.015422457
0003b0 61 9a 83 3b f4 cc 50 3d 38 1c 1c bd d9 8e 87 3c
       0.004016206 0.05097671 -0.03811285 0.016547607
0003c0 f5 92 ba 3c ff ad 66 3d 28 63 08 bd 88 7b 5f bc
       0.022775153 0.05631828 -0.033297688 -0.013640292
0003d0 b5 9f a0 bd 37 48 8e bd 1d fc 0e bc c5 b8 f0 3c
       -0.07842962 -0.06947368 -0.008727101 0.02938498
0003e0 a1 af 53 bd ec f2 72 3c 63 34 2a 3c 3e 7b 05 bd
       -0.051681165 0.014828425 0.0103884665 -0.032588236
0003f0 a8 02 77 bc 8c ce a5 3d 01 f3 af 3d cb fd 8b 3d
       -0.015076317 0.08096036 0.08591271 0.068355165

bias f4 [64]
000000 40 06 93 bd c5 39 00 bd 5f af b4 3d 55 62 af 3d
       -0.071789265 -0.031305093 0.08822512 0.08563677
000010 1c 82 d6 bd dd 46 97 3d cd f1 07 bd 89 79 b5 bb
       -0.10474035 0.07386563 -0.033189584 -0.0055381698
000020 4d 07 23 bc 65 4c e4 bd d2 57 03 bd 46 ff 83 3c
       -0.009950471 -0.111473836 -0.032066174 0.016112935
000030 b3 69 6e bd 99 50 e9 3c 6b 14 9a 3d fb 3a 73 3d
       -0.05820627 0.028480815 0.07523426 0.05938242
000040 a6 f2 21 3d be c2 17 3d 5c 4a fe 3c 50 cd 3b 3d
       0.03953805 0.037050955 0.031041317 0.045850098
000050 fb 08 61 bd a0 56 2b 3c 4f d0 db 3c 31 38 81 3c
       -0.054940205 0.010457665 0.026832728 0.015773864
000060 d1 43 88 bd 0b a0 c2 bd 4a cf 2d 3d 9a 3c 02 be
       -0.0665356 -0.09503182 0.042434014 -0.1271843
000070 9b ea cc bd 0b 38 b3 bd 73 23 e9 3c cb b0 12 3c
       -0.10005685 -0.08750924 0.028459286 0.008953284
000080 3d b0 d3 bd 96 86 9d bd 48 60 8f 3d 2d 64 29 bd
       -0.10336349 -0.07691686 0.07000786 -0.0413553
000090 4b 7d aa 3d 71 64 68 3d 3b 04 b8 bd 38 2c d7 bd
       0.08324679 0.056736413 -0.08985182 -0.10506481
0000a0 20 d5 5b bd 51 fe db bd 72 69 36 3c 95 2c 04 bd
       -0.05367005 -0.107418664 0.011133539 -0.03226908
0000b0 3f 76 d8 bd 70 89 3c ba f4 67 2c bc c5 87 0e bd
       -0.10569429 -0.00071921106 -0.010522831 -0.03479745
0000c0 6e e5 e8 bd c6 1a 78 bd dc 70 83 bc 75 f6 95 3d
       -0.11371885 -0.06057241 -0.016045026 0.073223986
0000d0 d5 e4 d8 3c 40 4e 65 3d 46 94 11 bd 58 c4 2b 3c
       0.026476303 0.05598283 -0.035541795 0.010483824
0000e0 ea 68 d5 bd a2 1d 95 bd 60 5f cf bc ba b0 b8 bd
       -0.104204014 -0.07281043 -0.025314033 -0.09018083
0000f0 39 2f 42 3d 55 98 ee 3c 01 05 42 bc 99 10 a5 bd
       0.047408316 0.029125372 -0.011842013 -0.080598064

weight f4 [64, 64, 3, 3]
000000 f8 51 87 3c e8 a3 80 3d a9 05 aa 3c c1 86 52 3c
       0.016518578 0.06281263 0.020754652 0.012849511
000010 0f b3 30 3c f3 2c 72 bc 55 db 89 3c 9b f5 dc 3c
       0.010784878 -0.014781225 0.016828218 0.026972583
000020 d7 e3 dd 3c f2 92 83 bc 76 c7 06 3d f8 f5 f8 bc
       0.027086182 -0.01606128 0.032905065 -0.030390725
000030 20 2b 86 bc 5b 05 b7 3c dc 20 20 3d cf 5d 53 3c
       -0.016377985 0.02234142 0.039093837 0.012900784
000040 84 8f a9 bc 01 14 92 3c ee 9e b3 bd 0c f1 72 bd
       -0.020698316 0.017831804 -0.08770548 -0.05931191
000050 b1 3c 77 bd 0b 8b 93 bc ef af 56 3d 4f de 5f bd
       -0.060360614 -0.018010637 0.052413877 -0.05465537
000060 39 d5 9a 3d 52 60 03 3d 0b 62 18 bb 18 6e 39 3b
       0.075602 0.03207428 -0.0023251798 0.002829438
000070 4b 78 be 3c a0 1c d3 3c 9c 3d 8e bc 36 9b 7a bc
       0.02325072 0.025770485 -0.017363362 -0.015295794
000080 23 9d a5 3b 27 0e 82 bd a9 04 20 bd 9f 02 1b bd
       0.0050541325 -0.063503556 -0.039066944 -0.037844297
000090 65 0a 05 bc cc c3 be bc 28 d3 de bb 0e a5 c9 3c
       -0.008120154 -0.023286723 -0.006800074 0.024614837
0000a0 4a 69 0a 3d 43 61 25 bd 7b d4 d5 bc dc 86 d2 bc
       0.033791818 -0.04037596 -0.026102295 -0.025699072
0000b0 2c 15 23 bb cf 01 70 3b 31 01 01 bd c9 7c c1 bc
       -0.0024884446 0.0036622172 -0.031495277 -0.023619073
0000c0 93 c7 ad 3c fa 9c d3 3b 69 10 6e bb f4 9f 34 bd
       0.021213328 0.006457922 -0.00363257 -0.044097856
0000d0 7a 5b ed bc 94 72 63 3b a3 9d 0b bd fe b6 51 bd
       -0.028974283 0.0034705745 -0.03408588 -0.051199906
0000e0 93 19 f5 3b 32 b2 e8 3c b4 75 dd 3c fe 84 ce 3c
       0.0074798553 0.028405283 0.027033664 0.0252099
0000f0 ca cb 6f 3c 9b be ae 3c 5e 71 ae 3c ae 7a 5e bd
       0.014635989 0.021331122 0.021294292 -0.054316215
000100 33 4b e8 bc 6f 8a 41 bd ed 43 34 3c 83 09 37 3c
       -0.02835617 -0.04725116 0.011002523 0.011171701
000110 d4 aa 03 3d b6 71 48 3d 40 8b 05 3d 37 43 a5 3c
       0.032145336 0.04893657 0.032603502 0.020173652
000120 a5 e5 28 3d 12 59 20 3d 4e 57 8f bd d7 06 6e 3d
       0.04123463 0.039147444 -0.06999074 0.05811199
000130 1f f4 f0 3c f3 fb 0d 3c c5 4e af 3d 68 49 0e 3d
       0.029413281 0.008666026 0.08559946 0.034737974
000140 6f b3 88 3d 32 2e 51 3d b5 32 45 3d 4e 67 07 bd
       0.06674849 0.051069446 0.04814406 -0.033057503
000150 9b fc 2f 3a 3d 28 0b 3c a4 e8 91 3d fd e4 81 3d
       0.00067133614 0.00849348 0.07124451 0.06342504
000160 53 5f 93 3d 70 a8 94 3d d4 c7 c4 3d 46 ee 8d 3d
       0.07195916 0.072586894 0.09608427 0.06930213
000170 85 e5 1f bc 5d 94 67 bc 56 a3 57 3b 71 33 12 3d
       -0.009759312 -0.014134494 0.0032903752 0.03569359
000180 97 6d 14 3d f2 27 9d 3c ea 23 c6 3c 1d a0 63 bc
       0.036237326 0.019184086 0.024187047 -0.013893154
000190 09 47 1e 3d b5 1e 2c bd 6a fd 00 3d 2c 1e c0 3c
       0.038641963 -0.042021472 0.031491674 0.023451887
0001a0 74 77 ea bc e6 2a 8b bc 83 16 05 3d d3 24 1c 3b
       -0.028621413 -0.016988229 0.032492172 0.002382566
0001b0 12 ce 81 bd 27 f4 1a bd c3 da e2 bc 22 57 50 bc
       -0.06338133 -0.037830498 -0.027692204 -0.012716087
0001c0 ed 6e a6 bc 31 81 8e bc 10 72 54 bd dc 9a e5 bc
       -0.020316565 -0.017395588 -0.05186659 -0.028027944
0001d0 1a a8 6f bd 80 1d 51 3c 2f b2 00 bd fd 95 86 bc
       -0.058509924 0.012763381 -0.03141993 -0.016428942
0001e0 df b2 8b 3c 1b 10 c8 3c 62 b4 bf 3b 61 45 a4 3b
       0.017053066 0.024421742 0.0058503607 0.0050131534
0001f0 be 89 0f 3d 82 75 da 3c 3e 8a fa bb d2 4c 0b 3d
       0.03504347 0.02666736 -0.0076458743 0.03400881
000200 f2 57 93 3c e5 1a 91 bc 19 55 b2 3c 75 c5 58 3d
       0.017986272 -0.01771302 0.021769093 0.052922685
000210 a2 8b 81 3b 1a f0 61 bd b7 82 a1 3c 3c 22 62 bc
       0.003953413 -0.05516062 0.01971565 -0.013802107
000220 73 e1 39 3c f1 66 c7 3b b1 59 e6 bc 6f 07 04 bd
       0.011345255 0.0060852696 -0.02811894 -0.03223365
000230 ef 3d 21 3d ce 73 05 bd f9 f7 02 bd 98 a3 41 bd
       0.039365705 -0.032581143 -0.031974766 -0.047275156
000240 48 62 b8 bc a4 e7 5a bc 6d 65 7a 3c f9 b0 8a 3c
       -0.022507802 -0.0133608915 0.015282971 0.01693009
000250 1d 64 50 3c 9d 95 c7 3c 9c 1a b7 bc 19 6a cf 3b
       0.012719181 0.024363333 -0.022351556 0.0063297865
000260 29 77 98 3c 5c 49 4d 3c f3 7a 16 3d 8c fd 34 bd
       0.018611507 0.012529697 0.036738347 -0.044187114
000270 c1 ce e4 3c 3d 84 53 3d 00 b2 80 bd 15 c6 37 3d
       0.02793062 0.051639784 -0.06283951 0.04486664
000280 37 23 e5 bc 83 36 64 bb 0c 76 50 3d 92 4b 44 3d
       -0.027970893 -0.003482253 0.05089383 0.047923632
000290 4a 59 8c 3b 03 5d a1 3c 4d 35 e3 bb 0f 5a de bb
       0.004283105 0.019697672 -0.006933844 -0.006785638
0002a0 7c c9 ca 3c 84 af 69 38 dd ee 02 bd 27 e0 d2 3b
       0.024754278 5.571499e-05 -0.03196608 0.0064354124
0002b0 b5 1b 29 3c 49 6a d2 3c 77 96 ae bc 43 4a 51 3c
       0.010321547 0.025685446 -0.021311982 0.012774053
0002c0 1d ae a6 bc 75 54 47 bd a2 8c 93 bc 4d 23 13 bd
       -0.020346696 -0.04866453 -0.018011395 -0.035922337
0002d0 32 ee f7 3a 62 c4 7d 3c 7f 36 19 3e 41 e1 6c bd
       0.0018915592 0.015488716 0.14962195 -0.057832006
0002e0 24 72 35 3d 46 98 ac 3d 45 68 f4 3c fb 13 db bb
       0.044298306 0.08427481 0.029834876 -0.0066857315
0002f0 48 07 d1 3d 52 02 d8 bc 2c 71 66 bb 7a 95 b3 bc
       0.10206467 -0.026368294 -0.003516267 -0.021921862
000300 27 ba d4 3c fa aa f4 3c 92 2e e1 bc bf de 26 3d
       0.02596767 0.029866684 -0.027488027 0.04073977
000310 06 cd a8 3c b3 60 12 bc 4c 89 56 bc cc 70 9d b9
       0.020605575 -0.008934188 -0.013094258 -0.00030029414
000320 ef 6c 54 bb 53 3a 40 3d 30 84 0a 3d c8 36 96 bc
       -0.0032413562 0.046930622 0.03381747 -0.018336669
000330 90 45 dc 3c 3a 6f 03 3d 77 ae 51 3d 96 13 41 3e
       0.026888639 0.032088496 0.051191773 0.18855128
000340 cf 00 06 3e 7e 78 fe 3c 24 b4 c7 3d b7 71 94 3d
       0.13086246 0.031063315 0.09751156 0.07248252
000350 02 ee 60 3d 3c 50 f8 bb b8 64 05 3d 61 eb 96 3c
       0.054914482 -0.007577924 0.032566756 0.018422784
000360 19 a8 ad bb 2c 1d c6 bc b6 55 09 bc 3e fa 10 3b
       -0.00529958 -0.024183832 -0.0083822515 0.0022121812
000370 e1 0d 6f bc 36 15 cf bc bb 27 39 3d 61 f4 3b 3c
       -0.014590711 -0.025278669 0.045203906 0.011471839
000380 96 74 21 bc 87 93 bc bc e4 22 af 3c cc 2a 24 ba
       -0.009854456 -0.023019565 0.021378942 -0.0006262481
000390 07 61 fb bc 4d 2d f4 3c 71 fd 0e 3d c4 9b 34 bd
       -0.030685915 0.029806757 0.03490967 -0.044093862
0003a0 0d 73 20 3d c1 7b 83 bc 70 7d 47 3c c8 1d 24 3d
       0.03917222 -0.016050221 0.012175903 0.040067464
0003b0 1f 70 9a bc 91 dd af bc 2a 3f df bc c3 8c ca 3c
       -0.018852292 -0.021467956 -0.027251799 0.024725324
0003c0 04 29 d8 bc 67 cc e8 3c 78 9c ec bc 24 df 9a 3a
       -0.026386745 0.02841778 -0.028883204 0.0011815769
0003d0 98 a6 2b bd 51 3e 11 3d d1 e9 28 bd a2 e5 13 3d
       -0.041906923 0.03545982 -0.04123861 0.036107667
0003e0 ce 09 f6 3b ac f3 9e bc 4d f7 35 bc 24 24 f5 bb
       0.007508493 -0.019403301 -0.011106324 -0.007481115
0003f0 42 49 15 bc cc 36 27 3d c6 d2 f6 3c 1c e3 48 3c
       -0.009111704 0.040823743 0.030129801 0.012261178

bias f4 [64]
000000 6a 08 96 bd cb 27 e5 3b c4 61 85 bd d1 bb 84 bd
       -0.073258236 0.006993269 -0.06512788 -0.06481136
000010 84 08 9c bc a2 2c 29 3d 1e 0c 4a 3d b0 ce 00 3d
       -0.01904703 0.04130233 0.049327962 0.031447113
000020 82 58 9c 3b c9 df 1c 3d 3a 88 49 3c b4 c9 7c 3d
       0.004771293 0.038299356 0.012300545 0.061715797
000030 eb 44 ae 3c 4e d6 55 bd b7 da cd bd ad 25 89 bc
       0.021273097 -0.05220633 -0.10051482 -0.016741598
000040 3d c3 b2 3b 19 0a 98 3c 43 07 c6 3c 45 3c b4 3d
       0.005455403 0.018559502 0.024173385 0.08800558
000050 47 74 7f bc 7e 6d 7b bd 43 71 90 bc 28 66 5d bd
       -0.0155916875 -0.061383717 -0.017632132 -0.054052502
000060 0c e3 74 bd 09 bc 90 bd 43 0a 3c bc 00 0e a8 3c
       -0.05978684 -0.07067115 -0.011477056 0.020514488
000070 9f 02 5d bd 23 83 55 3d 13 3b 86 3d 11 67 6a bb
       -0.053957578 0.052127015 0.06554236 -0.0035766999
000080 fb 6e 4d bd b7 2a d8 bd e2 50 43 bc a4 48 8a 3d
       -0.050154667 -0.10555022 -0.011921139 0.06752136
000090 5e 65 6b bb 5b c5 9e 3d 26 b4 e4 3b f8 bb c5 bc
       -0.0035918574 0.07752486 0.006979483 -0.024137482
0000a0 cf da 01 3d 9e a5 04 3b 4c c4 ec ba 07 79 97 bd
       0.031702813 0.0020240317 -0.0018063872 -0.07396131
0000b0 59 05 ff b9 f6 82 3f 3d 3c 5c 06 bd 87 60 c1 3c
       -0.00048641374 0.046755753 -0.032802805 0.023605598
0000c0 89 ec 89 3d e6 fd a0 3a 6b e7 91 3d 9a 62 38 bd
       0.067345686 0.0012282699 0.071242176 -0.04501591
0000d0 a7 17 f6 3c e4 b5 0c 3d a0 17 04 3d 0f af 18 3d
       0.030040575 0.034353152 0.032249093 0.037276324
0000e0 fd 53 0b 3d dd cd 4f bc 79 75 69 bd 75 67 3d 3d
       0.034015644 -0.012683359 -0.056996796 0.046241242
0000f0 e4 d7 86 bc b4 51 88 ba 21 26 3b bd ce 4c 10 bc
       -0.016460367 -0.0010400326 -0.04569066 -0.008807374
